…
[1;32m    261 [0m[0;32mdef[0m [0msave_ckpt[0m[0;34m([0m[0mnet[0m[0;34m,[0m [0mopt[0m[0;34m,[0m [0msave_dir[0m[0;34m,[0m [0mepoch[0m[0;34m)[0m[0;34m:[0m[0;34m[0m[0;34m[0m[0m
[1;32m    262 [0m    [0;32mif[0m [0;32mnot[0m [0mos[0m[0;34m.[0m[0mpath[0m[0;34m.[0m[0mexists[0m[0;34m([0m[0msave_dir[0m[0;34m)[0m[0;34m:[0m[0;34m[0m[0;34m[0m[0m
[1;32m    263 [0m        [0mos[0m[0;34m.[0m[0mmakedirs[0m[0;34m([0m[0msave_dir[0m[0;34m)[0m[0;34m[0m[0;34m[0m[0m

ipdb> DistributedDataParallel(
  (module): Net(
    (actor_net): ActorNet(
      (groups): ModuleList(
        (0): Sequential(
          (0): Res1d(
            (conv1): Conv1d(3, 32, kernel_size=(3,), stride=(1,), padding=(1,), bias=False)
            (conv2): Conv1d(32, 32, kernel_size=(3,), stride=(1,), padding=(1,), bias=False)
            (relu): ReLU(inplace=True)
            (bn1): GroupNorm(1, 32, eps=1e-05, affine=True)
            (bn2): GroupNorm(1, 32, eps=1e-05, affine=True)
            (downsample): Sequential(
              (0): Conv1d(3, 32, kernel_size=(1,), stride=(1,), bias=False)
              (1): GroupNorm(1, 32, eps=1e-05, affine=True)
            )
          )
          (1): Res1d(
            (conv1): Conv1d(32, 32, kernel_size=(3,), stride=(1,), padding=(1,), bias=False)
            (conv2): Conv1d(32, 32, kernel_size=(3,), stride=(1,), padding=(1,), bias=False)
            (relu): ReLU(inplace=True)
            (bn1): GroupNorm(1, 32, eps=1e-05, affine=True)
            (bn2): GroupNorm(1, 32, eps=1e-05, affine=True)
          )
        )
        (1): Sequential(
          (0): Res1d(
            (conv1): Conv1d(32, 64, kernel_size=(3,), stride=(2,), padding=(1,), bias=False)
            (conv2): Conv1d(64, 64, kernel_size=(3,), stride=(1,), padding=(1,), bias=False)
            (relu): ReLU(inplace=True)
            (bn1): GroupNorm(1, 64, eps=1e-05, affine=True)
            (bn2): GroupNorm(1, 64, eps=1e-05, affine=True)
            (downsample): Sequential(
              (0): Conv1d(32, 64, kernel_size=(1,), stride=(2,), bias=False)
              (1): GroupNorm(1, 64, eps=1e-05, affine=True)
            )
          )
          (1): Res1d(
            (conv1): Conv1d(64, 64, kernel_size=(3,), stride=(1,), padding=(1,), bias=False)
            (conv2): Conv1d(64, 64, kernel_size=(3,), stride=(1,), padding=(1,), bias=False)
            (relu): ReLU(inplace=True)
            (bn1): GroupNorm(1, 64, eps=1e-05, affine=True)
            (bn2): GroupNorm(1, 64, eps=1e-05, affine=True)
          )
        )
        (2): Sequential(
          (0): Res1d(
            (conv1): Conv1d(64, 128, kernel_size=(3,), stride=(2,), padding=(1,), bias=False)
            (conv2): Conv1d(128, 128, kernel_size=(3,), stride=(1,), padding=(1,), bias=False)
            (relu): ReLU(inplace=True)
            (bn1): GroupNorm(1, 128, eps=1e-05, affine=True)
            (bn2): GroupNorm(1, 128, eps=1e-05, affine=True)
            (downsample): Sequential(
              (0): Conv1d(64, 128, kernel_size=(1,), stride=(2,), bias=False)
              (1): GroupNorm(1, 128, eps=1e-05, affine=True)
            )
          )
          (1): Res1d(
            (conv1): Conv1d(128, 128, kernel_size=(3,), stride=(1,), padding=(1,), bias=False)
            (conv2): Conv1d(128, 128, kernel_size=(3,), stride=(1,), padding=(1,), bias=False)
            (relu): ReLU(inplace=True)
            (bn1): GroupNorm(1, 128, eps=1e-05, affine=True)
            (bn2): GroupNorm(1, 128, eps=1e-05, affine=True)
          )
        )
      )
      (lateral): ModuleList(
        (0): Conv1d(
          (conv): Conv1d(32, 128, kernel_size=(3,), stride=(1,), padding=(1,), bias=False)
          (norm): GroupNorm(1, 128, eps=1e-05, affine=True)
          (relu): ReLU(inplace=True)
        )
        (1): Conv1d(
          (conv): Conv1d(64, 128, kernel_size=(3,), stride=(1,), padding=(1,), bias=False)
          (norm): GroupNorm(1, 128, eps=1e-05, affine=True)
          (relu): ReLU(inplace=True)
        )
        (2): Conv1d(
          (conv): Conv1d(128, 128, kernel_size=(3,), stride=(1,), padding=(1,), bias=False)
          (norm): GroupNorm(1, 128, eps=1e-05, affine=True)
          (relu): ReLU(inplace=True)
        )
      )
      (output): Res1d(
        (conv1): Conv1d(128, 128, kernel_size=(3,), stride=(1,), padding=(1,), bias=False)
        (conv2): Conv1d(128, 128, kernel_size=(3,), stride=(1,), padding=(1,), bias=False)
        (relu): ReLU(inplace=True)
        (bn1): GroupNorm(1, 128, eps=1e-05, affine=True)
        (bn2): GroupNorm(1, 128, eps=1e-05, affine=True)
      )
    )
    (map_net): MapNet(
      (input): Sequential(
        (0): Linear(in_features=2, out_features=128, bias=True)
        (1): ReLU(inplace=True)
        (2): Linear(
          (linear): Linear(in_features=128, out_features=128, bias=False)
          (norm): GroupNorm(1, 128, eps=1e-05, affine=True)
          (relu): ReLU(inplace=True)
        )
      )
      (seg): Sequential(
        (0): Linear(in_features=2, out_features=128, bias=True)
        (1): ReLU(inplace=True)
        (2): Linear(
          (linear): Linear(in_features=128, out_features=128, bias=False)
          (norm): GroupNorm(1, 128, eps=1e-05, affine=True)
          (relu): ReLU(inplace=True)
        )
      )
      (fuse): ModuleDict(
        (ctr): ModuleList(
          (0): Linear(in_features=128, out_features=128, bias=False)
          (1): Linear(in_features=128, out_features=128, bias=False)
          (2): Linear(in_features=128, out_features=128, bias=False)
          (3): Linear(in_features=128, out_features=128, bias=False)
        )
        (norm): ModuleList(
          (0): GroupNorm(1, 128, eps=1e-05, affine=True)
          (1): GroupNorm(1, 128, eps=1e-05, affine=True)
          (2): GroupNorm(1, 128, eps=1e-05, affine=True)
          (3): GroupNorm(1, 128, eps=1e-05, affine=True)
        )
        (ctr2): ModuleList(
          (0): Linear(
            (linear): Linear(in_features=128, out_features=128, bias=False)
            (norm): GroupNorm(1, 128, eps=1e-05, affine=True)
            (relu): ReLU(inplace=True)
          )
          (1): Linear(
            (linear): Linear(in_features=128, out_features=128, bias=False)
            (norm): GroupNorm(1, 128, eps=1e-05, affine=True)
            (relu): ReLU(inplace=True)
          )
          (2): Linear(
            (linear): Linear(in_features=128, out_features=128, bias=False)
            (norm): GroupNorm(1, 128, eps=1e-05, affine=True)
            (relu): ReLU(inplace=True)
          )
          (3): Linear(
            (linear): Linear(in_features=128, out_features=128, bias=False)
            (norm): GroupNorm(1, 128, eps=1e-05, affine=True)
            (relu): ReLU(inplace=True)
          )
        )
        (left): ModuleList(
          (0): Linear(in_features=128, out_features=128, bias=False)
          (1): Linear(in_features=128, out_features=128, bias=False)
          (2): Linear(in_features=128, out_features=128, bias=False)
          (3): Linear(in_features=128, out_features=128, bias=False)
        )
        (right): ModuleList(
          (0): Linear(in_features=128, out_features=128, bias=False)
          (1): Linear(in_features=128, out_features=128, bias=False)
          (2): Linear(in_features=128, out_features=128, bias=False)
          (3): Linear(in_features=128, out_features=128, bias=False)
        )
        (pre0): ModuleList(
          (0): Linear(in_features=128, out_features=128, bias=False)
          (1): Linear(in_features=128, out_features=128, bias=False)
          (2): Linear(in_features=128, out_features=128, bias=False)
          (3): Linear(in_features=128, out_features=128, bias=False)
        )
        (suc0): ModuleList(
          (0): Linear(in_features=128, out_features=128, bias=False)
          (1): Linear(in_features=128, out_features=128, bias=False)
          (2): Linear(in_features=128, out_features=128, bias=False)
          (3): Linear(in_features=128, out_features=128, bias=False)
        )
        (pre1): ModuleList(
          (0): Linear(in_features=128, out_features=128, bias=False)
          (1): Linear(in_features=128, out_features=128, bias=False)
          (2): Linear(in_features=128, out_features=128, bias=False)
          (3): Linear(in_features=128, out_features=128, bias=False)
        )
        (suc1): ModuleList(
          (0): Linear(in_features=128, out_features=128, bias=False)
          (1): Linear(in_features=128, out_features=128, bias=False)
          (2): Linear(in_features=128, out_features=128, bias=False)
          (3): Linear(in_features=128, out_features=128, bias=False)
        )
        (pre2): ModuleList(
          (0): Linear(in_features=128, out_features=128, bias=False)
          (1): Linear(in_features=128, out_features=128, bias=False)
          (2): Linear(in_features=128, out_features=128, bias=False)
          (3): Linear(in_features=128, out_features=128, bias=False)
        )
        (suc2): ModuleList(
          (0): Linear(in_features=128, out_features=128, bias=False)
          (1): Linear(in_features=128, out_features=128, bias=False)
          (2): Linear(in_features=128, out_features=128, bias=False)
          (3): Linear(in_features=128, out_features=128, bias=False)
        )
        (pre3): ModuleList(
          (0): Linear(in_features=128, out_features=128, bias=False)
          (1): Linear(in_features=128, out_features=128, bias=False)
          (2): Linear(in_features=128, out_features=128, bias=False)
          (3): Linear(in_features=128, out_features=128, bias=False)
        )
        (suc3): ModuleList(
          (0): Linear(in_features=128, out_features=128, bias=False)
          (1): Linear(in_features=128, out_features=128, bias=False)
          (2): Linear(in_features=128, out_features=128, bias=False)
          (3): Linear(in_features=128, out_features=128, bias=False)
        )
        (pre4): ModuleList(
          (0): Linear(in_features=128, out_features=128, bias=False)
          (1): Linear(in_features=128, out_features=128, bias=False)
          (2): Linear(in_features=128, out_features=128, bias=False)
          (3): Linear(in_features=128, out_features=128, bias=False)
        )
        (suc4): ModuleList(
          (0): Linear(in_features=128, out_features=128, bias=False)
          (1): Linear(in_features=128, out_features=128, bias=False)
          (2): Linear(in_features=128, out_features=128, bias=False)
          (3): Linear(in_features=128, out_features=128, bias=False)
        )
        (pre5): ModuleList(
          (0): Linear(in_features=128, out_features=128, bias=False)
          (1): Linear(in_features=128, out_features=128, bias=False)
          (2): Linear(in_features=128, out_features=128, bias=False)
          (3): Linear(in_features=128, out_features=128, bias=False)
        )
        (suc5): ModuleList(
          (0): Linear(in_features=128, out_features=128, bias=False)
          (1): Linear(in_features=128, out_features=128, bias=False)
          (2): Linear(in_features=128, out_features=128, bias=False)
          (3): Linear(in_features=128, out_features=128, bias=False)
        )
      )
      (relu): ReLU(inplace=True)
    )
    (a2m): A2M(
      (meta): Linear(
        (linear): Linear(in_features=132, out_features=128, bias=False)
        (norm): GroupNorm(1, 128, eps=1e-05, affine=True)
        (relu): ReLU(inplace=True)
      )
      (att): ModuleList(
        (0): Att(
          (dist): Sequential(
            (0): Linear(in_features=2, out_features=128, bias=True)
            (1): ReLU(inplace=True)
            (2): Linear(
              (linear): Linear(in_features=128, out_features=128, bias=False)
              (norm): GroupNorm(1, 128, eps=1e-05, affine=True)
              (relu): ReLU(inplace=True)
            )
          )
          (query): Linear(
            (linear): Linear(in_features=128, out_features=128, bias=False)
            (norm): GroupNorm(1, 128, eps=1e-05, affine=True)
            (relu): ReLU(inplace=True)
          )
          (ctx): Sequential(
            (0): Linear(
              (linear): Linear(in_features=384, out_features=128, bias=False)
              (norm): GroupNorm(1, 128, eps=1e-05, affine=True)
              (relu): ReLU(inplace=True)
            )
            (1): Linear(in_features=128, out_features=128, bias=False)
          )
          (agt): Linear(in_features=128, out_features=128, bias=False)
          (norm): GroupNorm(1, 128, eps=1e-05, affine=True)
          (linear): Linear(
            (linear): Linear(in_features=128, out_features=128, bias=False)
            (norm): GroupNorm(1, 128, eps=1e-05, affine=True)
            (relu): ReLU(inplace=True)
          )
          (relu): ReLU(inplace=True)
        )
        (1): Att(
          (dist): Sequential(
            (0): Linear(in_features=2, out_features=128, bias=True)
            (1): ReLU(inplace=True)
            (2): Linear(
              (linear): Linear(in_features=128, out_features=128, bias=False)
              (norm): GroupNorm(1, 128, eps=1e-05, affine=True)
              (relu): ReLU(inplace=True)
            )
          )
          (query): Linear(
            (linear): Linear(in_features=128, out_features=128, bias=False)
            (norm): GroupNorm(1, 128, eps=1e-05, affine=True)
            (relu): ReLU(inplace=True)
          )
          (ctx): Sequential(
            (0): Linear(
              (linear): Linear(in_features=384, out_features=128, bias=False)
              (norm): GroupNorm(1, 128, eps=1e-05, affine=True)
              (relu): ReLU(inplace=True)
            )
            (1): Linear(in_features=128, out_features=128, bias=False)
          )
          (agt): Linear(in_features=128, out_features=128, bias=False)
          (norm): GroupNorm(1, 128, eps=1e-05, affine=True)
          (linear): Linear(
            (linear): Linear(in_features=128, out_features=128, bias=False)
            (norm): GroupNorm(1, 128, eps=1e-05, affine=True)
            (relu): ReLU(inplace=True)
          )
          (relu): ReLU(inplace=True)
        )
      )
    )
    (m2m): M2M(
      (fuse): ModuleDict(
        (ctr): ModuleList(
          (0): Linear(in_features=128, out_features=128, bias=False)
          (1): Linear(in_features=128, out_features=128, bias=False)
          (2): Linear(in_features=128, out_features=128, bias=False)
          (3): Linear(in_features=128, out_features=128, bias=False)
        )
        (norm): ModuleList(
          (0): GroupNorm(1, 128, eps=1e-05, affine=True)
          (1): GroupNorm(1, 128, eps=1e-05, affine=True)
          (2): GroupNorm(1, 128, eps=1e-05, affine=True)
          (3): GroupNorm(1, 128, eps=1e-05, affine=True)
        )
        (ctr2): ModuleList(
          (0): Linear(
            (linear): Linear(in_features=128, out_features=128, bias=False)
            (norm): GroupNorm(1, 128, eps=1e-05, affine=True)
            (relu): ReLU(inplace=True)
          )
          (1): Linear(
            (linear): Linear(in_features=128, out_features=128, bias=False)
            (norm): GroupNorm(1, 128, eps=1e-05, affine=True)
            (relu): ReLU(inplace=True)
          )
          (2): Linear(
            (linear): Linear(in_features=128, out_features=128, bias=False)
            (norm): GroupNorm(1, 128, eps=1e-05, affine=True)
            (relu): ReLU(inplace=True)
          )
          (3): Linear(
            (linear): Linear(in_features=128, out_features=128, bias=False)
            (norm): GroupNorm(1, 128, eps=1e-05, affine=True)
            (relu): ReLU(inplace=True)
          )
        )
        (left): ModuleList(
          (0): Linear(in_features=128, out_features=128, bias=False)
          (1): Linear(in_features=128, out_features=128, bias=False)
          (2): Linear(in_features=128, out_features=128, bias=False)
          (3): Linear(in_features=128, out_features=128, bias=False)
        )
        (right): ModuleList(
          (0): Linear(in_features=128, out_features=128, bias=False)
          (1): Linear(in_features=128, out_features=128, bias=False)
          (2): Linear(in_features=128, out_features=128, bias=False)
          (3): Linear(in_features=128, out_features=128, bias=False)
        )
        (pre0): ModuleList(
          (0): Linear(in_features=128, out_features=128, bias=False)
          (1): Linear(in_features=128, out_features=128, bias=False)
          (2): Linear(in_features=128, out_features=128, bias=False)
          (3): Linear(in_features=128, out_features=128, bias=False)
        )
        (suc0): ModuleList(
          (0): Linear(in_features=128, out_features=128, bias=False)
          (1): Linear(in_features=128, out_features=128, bias=False)
          (2): Linear(in_features=128, out_features=128, bias=False)
          (3): Linear(in_features=128, out_features=128, bias=False)
        )
        (pre1): ModuleList(
          (0): Linear(in_features=128, out_features=128, bias=False)
          (1): Linear(in_features=128, out_features=128, bias=False)
          (2): Linear(in_features=128, out_features=128, bias=False)
          (3): Linear(in_features=128, out_features=128, bias=False)
        )
        (suc1): ModuleList(
          (0): Linear(in_features=128, out_features=128, bias=False)
          (1): Linear(in_features=128, out_features=128, bias=False)
          (2): Linear(in_features=128, out_features=128, bias=False)
          (3): Linear(in_features=128, out_features=128, bias=False)
        )
        (pre2): ModuleList(
          (0): Linear(in_features=128, out_features=128, bias=False)
          (1): Linear(in_features=128, out_features=128, bias=False)
          (2): Linear(in_features=128, out_features=128, bias=False)
          (3): Linear(in_features=128, out_features=128, bias=False)
        )
        (suc2): ModuleList(
          (0): Linear(in_features=128, out_features=128, bias=False)
          (1): Linear(in_features=128, out_features=128, bias=False)
          (2): Linear(in_features=128, out_features=128, bias=False)
          (3): Linear(in_features=128, out_features=128, bias=False)
        )
        (pre3): ModuleList(
          (0): Linear(in_features=128, out_features=128, bias=False)
          (1): Linear(in_features=128, out_features=128, bias=False)
          (2): Linear(in_features=128, out_features=128, bias=False)
          (3): Linear(in_features=128, out_features=128, bias=False)
        )
        (suc3): ModuleList(
          (0): Linear(in_features=128, out_features=128, bias=False)
          (1): Linear(in_features=128, out_features=128, bias=False)
          (2): Linear(in_features=128, out_features=128, bias=False)
          (3): Linear(in_features=128, out_features=128, bias=False)
        )
        (pre4): ModuleList(
          (0): Linear(in_features=128, out_features=128, bias=False)
          (1): Linear(in_features=128, out_features=128, bias=False)
          (2): Linear(in_features=128, out_features=128, bias=False)
          (3): Linear(in_features=128, out_features=128, bias=False)
        )
        (suc4): ModuleList(
          (0): Linear(in_features=128, out_features=128, bias=False)
          (1): Linear(in_features=128, out_features=128, bias=False)
          (2): Linear(in_features=128, out_features=128, bias=False)
          (3): Linear(in_features=128, out_features=128, bias=False)
        )
        (pre5): ModuleList(
          (0): Linear(in_features=128, out_features=128, bias=False)
          (1): Linear(in_features=128, out_features=128, bias=False)
          (2): Linear(in_features=128, out_features=128, bias=False)
          (3): Linear(in_features=128, out_features=128, bias=False)
        )
        (suc5): ModuleList(
          (0): Linear(in_features=128, out_features=128, bias=False)
          (1): Linear(in_features=128, out_features=128, bias=False)
          (2): Linear(in_features=128, out_features=128, bias=False)
          (3): Linear(in_features=128, out_features=128, bias=False)
        )
      )
      (relu): ReLU(inplace=True)
    )
    (m2a): M2A(
      (att): ModuleList(
        (0): Att(
          (dist): Sequential(
            (0): Linear(in_features=2, out_features=128, bias=True)
            (1): ReLU(inplace=True)
            (2): Linear(
              (linear): Linear(in_features=128, out_features=128, bias=False)
              (norm): GroupNorm(1, 128, eps=1e-05, affine=True)
              (relu): ReLU(inplace=True)
            )
          )
          (query): Linear(
            (linear): Linear(in_features=128, out_features=128, bias=False)
            (norm): GroupNorm(1, 128, eps=1e-05, affine=True)
            (relu): ReLU(inplace=True)
          )
          (ctx): Sequential(
            (0): Linear(
              (linear): Linear(in_features=384, out_features=128, bias=False)
              (norm): GroupNorm(1, 128, eps=1e-05, affine=True)
              (relu): ReLU(inplace=True)
            )
            (1): Linear(in_features=128, out_features=128, bias=False)
          )
          (agt): Linear(in_features=128, out_features=128, bias=False)
          (norm): GroupNorm(1, 128, eps=1e-05, affine=True)
          (linear): Linear(
            (linear): Linear(in_features=128, out_features=128, bias=False)
            (norm): GroupNorm(1, 128, eps=1e-05, affine=True)
            (relu): ReLU(inplace=True)
          )
          (relu): ReLU(inplace=True)
        )
        (1): Att(
          (dist): Sequential(
            (0): Linear(in_features=2, out_features=128, bias=True)
            (1): ReLU(inplace=True)
            (2): Linear(
              (linear): Linear(in_features=128, out_features=128, bias=False)
              (norm): GroupNorm(1, 128, eps=1e-05, affine=True)
              (relu): ReLU(inplace=True)
            )
          )
          (query): Linear(
            (linear): Linear(in_features=128, out_features=128, bias=False)
            (norm): GroupNorm(1, 128, eps=1e-05, affine=True)
            (relu): ReLU(inplace=True)
          )
          (ctx): Sequential(
            (0): Linear(
              (linear): Linear(in_features=384, out_features=128, bias=False)
              (norm): GroupNorm(1, 128, eps=1e-05, affine=True)
              (relu): ReLU(inplace=True)
            )
            (1): Linear(in_features=128, out_features=128, bias=False)
          )
          (agt): Linear(in_features=128, out_features=128, bias=False)
          (norm): GroupNorm(1, 128, eps=1e-05, affine=True)
          (linear): Linear(
            (linear): Linear(in_features=128, out_features=128, bias=False)
            (norm): GroupNorm(1, 128, eps=1e-05, affine=True)
            (relu): ReLU(inplace=True)
          )
          (relu): ReLU(inplace=True)
        )
      )
    )
    (a2a): A2A(
      (att): ModuleList(
        (0): Att(
          (dist): Sequential(
            (0): Linear(in_features=2, out_features=128, bias=True)
            (1): ReLU(inplace=True)
            (2): Linear(
              (linear): Linear(in_features=128, out_features=128, bias=False)
              (norm): GroupNorm(1, 128, eps=1e-05, affine=True)
              (relu): ReLU(inplace=True)
            )
          )
          (query): Linear(
            (linear): Linear(in_features=128, out_features=128, bias=False)
            (norm): GroupNorm(1, 128, eps=1e-05, affine=True)
            (relu): ReLU(inplace=True)
          )
          (ctx): Sequential(
            (0): Linear(
              (linear): Linear(in_features=384, out_features=128, bias=False)
              (norm): GroupNorm(1, 128, eps=1e-05, affine=True)
              (relu): ReLU(inplace=True)
            )
            (1): Linear(in_features=128, out_features=128, bias=False)
          )
          (agt): Linear(in_features=128, out_features=128, bias=False)
          (norm): GroupNorm(1, 128, eps=1e-05, affine=True)
          (linear): Linear(
            (linear): Linear(in_features=128, out_features=128, bias=False)
            (norm): GroupNorm(1, 128, eps=1e-05, affine=True)
            (relu): ReLU(inplace=True)
          )
          (relu): ReLU(inplace=True)
        )
        (1): Att(
          (dist): Sequential(
            (0): Linear(in_features=2, out_features=128, bias=True)
            (1): ReLU(inplace=True)
            (2): Linear(
              (linear): Linear(in_features=128, out_features=128, bias=False)
              (norm): GroupNorm(1, 128, eps=1e-05, affine=True)
              (relu): ReLU(inplace=True)
            )
          )
          (query): Linear(
            (linear): Linear(in_features=128, out_features=128, bias=False)
            (norm): GroupNorm(1, 128, eps=1e-05, affine=True)
            (relu): ReLU(inplace=True)
          )
          (ctx): Sequential(
            (0): Linear(
              (linear): Linear(in_features=384, out_features=128, bias=False)
              (norm): GroupNorm(1, 128, eps=1e-05, affine=True)
              (relu): ReLU(inplace=True)
            )
            (1): Linear(in_features=128, out_features=128, bias=False)
          )
          (agt): Linear(in_features=128, out_features=128, bias=False)
          (norm): GroupNorm(1, 128, eps=1e-05, affine=True)
          (linear): Linear(
            (linear): Linear(in_features=128, out_features=128, bias=False)
            (norm): GroupNorm(1, 128, eps=1e-05, affine=True)
            (relu): ReLU(inplace=True)
          )
          (relu): ReLU(inplace=True)
        )
      )
    )
    (pred_net): PredNet(
      (pred): ModuleList(
        (0): Sequential(
          (0): LinearRes(
            (linear1): Linear(in_features=128, out_features=128, bias=False)
            (linear2): Linear(in_features=128, out_features=128, bias=False)
            (relu): ReLU(inplace=True)
            (norm1): GroupNorm(1, 128, eps=1e-05, affine=True)
            (norm2): GroupNorm(1, 128, eps=1e-05, affine=True)
          )
          (1): Linear(in_features=128, out_features=60, bias=True)
        )
        (1): Sequential(
          (0): LinearRes(
            (linear1): Linear(in_features=128, out_features=128, bias=False)
            (linear2): Linear(in_features=128, out_features=128, bias=False)
            (relu): ReLU(inplace=True)
            (norm1): GroupNorm(1, 128, eps=1e-05, affine=True)
            (norm2): GroupNorm(1, 128, eps=1e-05, affine=True)
          )
          (1): Linear(in_features=128, out_features=60, bias=True)
        )
        (2): Sequential(
          (0): LinearRes(
            (linear1): Linear(in_features=128, out_features=128, bias=False)
            (linear2): Linear(in_features=128, out_features=128, bias=False)
            (relu): ReLU(inplace=True)
            (norm1): GroupNorm(1, 128, eps=1e-05, affine=True)
            (norm2): GroupNorm(1, 128, eps=1e-05, affine=True)
          )
          (1): Linear(in_features=128, out_features=60, bias=True)
        )
        (3): Sequential(
          (0): LinearRes(
            (linear1): Linear(in_features=128, out_features=128, bias=False)
            (linear2): Linear(in_features=128, out_features=128, bias=False)
            (relu): ReLU(inplace=True)
            (norm1): GroupNorm(1, 128, eps=1e-05, affine=True)
            (norm2): GroupNorm(1, 128, eps=1e-05, affine=True)
          )
          (1): Linear(in_features=128, out_features=60, bias=True)
        )
        (4): Sequential(
          (0): LinearRes(
            (linear1): Linear(in_features=128, out_features=128, bias=False)
            (linear2): Linear(in_features=128, out_features=128, bias=False)
            (relu): ReLU(inplace=True)
            (norm1): GroupNorm(1, 128, eps=1e-05, affine=True)
            (norm2): GroupNorm(1, 128, eps=1e-05, affine=True)
          )
          (1): Linear(in_features=128, out_features=60, bias=True)
        )
        (5): Sequential(
          (0): LinearRes(
            (linear1): Linear(in_features=128, out_features=128, bias=False)
            (linear2): Linear(in_features=128, out_features=128, bias=False)
            (relu): ReLU(inplace=True)
            (norm1): GroupNorm(1, 128, eps=1e-05, affine=True)
            (norm2): GroupNorm(1, 128, eps=1e-05, affine=True)
          )
          (1): Linear(in_features=128, out_features=60, bias=True)
        )
      )
      (att_dest): AttDest(
        (dist): Sequential(
          (0): Linear(in_features=2, out_features=128, bias=True)
          (1): ReLU(inplace=True)
          (2): Linear(
            (linear): Linear(in_features=128, out_features=128, bias=False)
            (norm): GroupNorm(1, 128, eps=1e-05, affine=True)
            (relu): ReLU(inplace=True)
          )
        )
        (agt): Linear(
          (linear): Linear(in_features=256, out_features=128, bias=False)
          (norm): GroupNorm(1, 128, eps=1e-05, affine=True)
          (relu): ReLU(inplace=True)
        )
      )
      (cls): Sequential(
        (0): LinearRes(
          (linear1): Linear(in_features=128, out_features=128, bias=False)
          (linear2): Linear(in_features=128, out_features=128, bias=False)
          (relu): ReLU(inplace=True)
          (norm1): GroupNorm(1, 128, eps=1e-05, affine=True)
          (norm2): GroupNorm(1, 128, eps=1e-05, affine=True)
        )
        (1): Linear(in_features=128, out_features=1, bias=True)
      )
    )
  )
)
ipdb> ---------------VAL---------------------
ipdb> ipdb> ipdb> *** IndentationError: expected an indented block
ipdb> ipdb> *** IndentationError: expected an indented block
ipdb> ipdb> ipdb> ipdb> *** SyntaxError: invalid syntax
ipdb> *** IndentationError: expected an indented block
ipdb> ipdb> *** IndentationError: expected an indented block
…
